model_state/model2.pt (torch, 73861 bytes, 7 tensors)

fc1.weight f4 [128, 32]
0	0x3d942cb8	0.07235092
1	0xbd2d82d8	-0.04236111
2	0xbe051941	-0.12997915
3	0x3db5c497	0.08875387
4	0xbe1bdf1a	-0.15221825
5	0xbca8e48a	-0.020616788
6	0x3e0d9bd2	0.13828972
7	0x3dd76979	0.10518164
8	0x3d3a0bb9	0.045421336
9	0xbd94230a	-0.07233246
10	0x3e3269de	0.17423198
11	0x3d59c6ba	0.053168036
12	0xbc8a69c8	-0.016896144
13	0xbe391955	-0.1807607
14	0xbcd85369	-0.02640696
15	0xbd7a22a2	-0.061068185
16	0x3e27c574	0.16383916
17	0xbd8b9fee	-0.068176135
18	0x3d444a2d	0.047922302
19	0xbd9a81ea	-0.075443104
20	0x3e3ef144	0.18646723
21	0x3dd25a5c	0.10271141
22	0xbd5c611f	-0.05380356
23	0x3cb44f5f	0.022010503
24	0xbd087d86	-0.033322833
25	0xbddb3291	-0.10703004
26	0x3d575a9d	0.05257665
27	0x3e486898	0.1957115
28	0x3e347a8b	0.17624871
29	0x3e02fd22	0.12791875
30	0x3d9833ef	0.074317805
31	0x3c8a0a31	0.016850563
32	0x3d09f33c	0.033679232
33	0xbd1e649e	-0.038670175
34	0xbd89cb2b	-0.06728204
35	0xbd24532c	-0.04011838
36	0xbe354601	-0.17702486
37	0x3e1f430b	0.15552919
38	0xbd980280	-0.07422352
39	0x3d407588	0.046987087
40	0x3d204ab7	0.039133754
41	0xbe0ee537	-0.13954626
42	0x3dd841df	0.10559439
43	0x3dd260d3	0.10272374
44	0xbe674a52	-0.22586945
45	0xbe33e5c4	-0.17568117
46	0x3d8518c1	0.06498862
47	0x3c0215a4	0.00793973
48	0xbddd8fd4	-0.10818449
49	0xbd8c8df3	-0.06863012
50	0xb891c1a5	-6.950208e-05
51	0x3ac5d1c4	0.0015092422
52	0xbe14066c	-0.14455575
53	0x3dfedc5e	0.124443755
54	0x3d960538	0.07325214
55	0x3b22b436	0.0024826652
56	0x3b66ec5f	0.0035236103
57	0xbcbe1bdf	-0.02320665
58	0x3e4f25cc	0.20229262
59	0x3d69ab41	0.057048086
60	0x3d9633f8	0.07334131
61	0x3d62a03f	0.055328604
62	0xbd8a17dc	-0.06742832
63	0x3e0e2b72	0.1388376
64	0xbdd5437b	-0.104132615
65	0xbc36fdc6	-0.011168903
66	0xbd960d2b	-0.0732673
67	0xbe1e8939	-0.15482034
68	0xbe37ac9a	-0.17936936
69	0x3e479715	0.19491227
70	0xbc104017	-0.008804343
71	0xbdbd07a0	-0.0922997
72	0x3e103571	0.14082886
73	0xbe283b05	-0.16428764
74	0xbdf4fac4	-0.11961892
75	0x3d990481	0.07471562
76	0xbe56ba38	-0.20969474
77	0x3df6c49e	0.120492205
78	0x3d553e3a	0.052061297
79	0xbdda266d	-0.106518604
80	0xbd7d6fdd	-0.06187426
81	0x3e176357	0.14783989
82	0xbda3f8eb	-0.08006462
83	0xbdd97067	-0.10617142
84	0xbde76a12	-0.11299528
85	0x3a07e4cf	0.00051839364
86	0xbd901ba2	-0.070365205
87	0xbe073658	-0.13204324
88	0xbdd53deb	-0.104122005
89	0x3e2aba58	0.16672647
90	0x3e2bdae6	0.16782722
91	0xbd7d8430	-0.061893642
92	0xbd44bd88	-0.048032314
93	0xbe28dd5b	-0.1649069
94	0xbe0cf75b	-0.13766234
95	0xbe24e960	-0.1610465
96	0xbc376da1	-0.011195571
97	0x3e2d1ec5	0.16906269
98	0xbd118749	-0.03552941
99	0x3e1f8d35	0.1558121
100	0xbe322e82	-0.17400554
101	0x3e38cfec	0.18048066
102	0x3ca93468	0.020654872
103	0x3d8b7e56	0.06811206
104	0x3cc8e15f	0.024521528
105	0x3ca18556	0.0197169
106	0xbb820605	-0.0039680027
107	0xbd8b3801	-0.06797791
108	0xbd258ec4	-0.040419355
109	0x3d08042f	0.033207115
110	0x3d0d6775	0.034522492
111	0x3cbb519e	0.022866067
112	0x3e23dd36	0.16002354
113	0xbdad5d2e	-0.08465038
114	0xbb524f0e	-0.0032090577
115	0x3e13c2b8	0.14429748
116	0xbdcd0a56	-0.10011737
117	0x3e05a9dc	0.13053077
118	0xbd2db42c	-0.042408153
119	0x3cb6ec0f	0.022329358
120	0x3c263766	0.010145044
121	0xbdf03667	-0.117291264
122	0xbe1f7c3c	-0.15574735
123	0x3bffeb99	0.007810068
124	0xbdb3cd27	-0.08779364
125	0xbbca60da	-0.0061760964
126	0xbe20d938	-0.15707862
127	0x3d249698	0.04018268
128	0x3de59910	0.11210835
129	0xbdf52dfc	-0.119716614
130	0x3d420bee	0.04737466
131	0x3d90c331	0.0706848
132	0x3dc246d4	0.09486166
133	0xbc999849	-0.018749373
134	0xbdcc939c	-0.09989092
135	0xbd8b8044	-0.06811574
136	0xbdc7a20b	-0.09747704
137	0x3cec0a9e	0.028813656
138	0xbde8364c	-0.11338481
139	0x3d46119d	0.04835664
140	0xbe38c337	-0.18043219
141	0xbe626d77	-0.2211207
142	0xbe335017	-0.1751102
143	0xbe45fc72	-0.19334581
144	0x3d94ad97	0.07259672
145	0x3bad5a31	0.0052902927
146	0xbe1628c9	-0.14663996
147	0xbcc23b80	-0.023710012
148	0x3dbc3897	0.09190481
149	0x3da870cd	0.0822464
150	0x3d74efe1	0.05979908
151	0x3db6333a	0.088964894
152	0xbd7cd2bb	-0.061724406
153	0x3e34dfcc	0.17663497
154	0x3e22f560	0.15913916
155	0xbe021a39	-0.12705316
156	0xbce92148	-0.028458253
157	0xbda80d7c	-0.08205697
158	0x3dd37d08	0.10326582
159	0xbdd83c1f	-0.10558342
160	0xbe285d53	-0.1644185
161	0xbccc322f	-0.024926273
162	0x3e06aeae	0.13152573
163	0x3be7982c	0.007067701
164	0xbe602850	-0.21890378
165	0xbe2e2681	-0.17006876
166	0xbd44e690	-0.048071444
167	0xbd51bb53	-0.051204037
168	0x3d64b82f	0.055839714
169	0x3db403f5	0.08789817
170	0xbdc57c0b	-0.096428
171	0x3dbb1933	0.09135666
172	0xbe181f14	-0.14855605
173	0xbe02b2bf	-0.12763499
174	0xbcfece1b	-0.031104138
175	0x3d8a88a8	0.06764346
176	0xbdd21a87	-0.10258966
177	0xbdd01dc3	-0.101619266
178	0xbd20c52e	-0.039250545
179	0x3da41106	0.080110595
180	0x3c959615	0.018260041
181	0xbe24c3eb	-0.16090362
182	0x3dad1470	0.08451164
183	0x39abb7aa	0.00032752502
184	0x3b97b41d	0.0046296255
185	0xbe1a0b32	-0.15043333
186	0xbc9d257b	-0.019182911
187	0xbe0e0f0a	-0.13872924
188	0xbdd8bb38	-0.10582584
189	0xbc1973cd	-0.009365988
190	0x3e48106c	0.19537514
191	0xbe11b238	-0.14228141
192	0x3dd6290f	0.1045705
193	0x3c68276f	0.014169558
194	0x3d16aba3	0.03678478
195	0xbdfc30c7	-0.12313991
196	0xbdeb28fe	-0.11482428
197	0xbe57a070	-0.21057296
198	0xbe275f20	-0.16344881
199	0x3dcb5ac3	0.09929421
200	0xbdd1d28a	-0.10245235
201	0xbd1e3aa6	-0.03863015
202	0xbe1a9258	-0.15094888
203	0x3d610338	0.05493471
204	0xbdb6c4b9	-0.089242406
205	0xbda78a5a	-0.08180685
206	0x3d8ce5ba	0.06879754
207	0x3dad8846	0.08473258
208	0x3e10c990	0.1413939
209	0xbe23c538	-0.15993202
210	0x3d261c05	0.040554065
211	0xbd9496a8	-0.07255298
212	0xbd66c764	-0.056342497
213	0xbdd7ea18	-0.10542697
214	0x3dd7baa5	0.105336465
215	0x3d98c70f	0.074598424
216	0x3e058de7	0.13042413
217	0xbe019983	-0.12656216
218	0xbdc3caf4	-0.095601946
219	0xbdb8c2a5	-0.090215005
220	0x3d62ca47	0.055368688
221	0xbe3e9857	-0.186128
222	0x3dd60278	0.104496896
223	0xbda14ae9	-0.07875616
224	0xbe2a998d	-0.16660137
225	0x3e2a1051	0.16607787
226	0xbce23ad4	-0.027615942
227	0x3cdb34c5	0.02675856
228	0x3e3da71d	0.1852078
229	0xbda6871c	-0.08131239
230	0xbdca55a9	-0.0987962
231	0xbd86b6f3	-0.065778635
232	0xbe23acf0	-0.15983939
233	0xbb038e07	-0.0020073669
234	0x3d86d4ab	0.06583532
235	0x3db7789b	0.089585505
236	0x3d587d2b	0.052853744
237	0xbe3ed0c2	-0.18634322
238	0xbb81d406	-0.0039620427
239	0xbdf2d82d	-0.118576385
240	0xbdc640ee	-0.09680353
241	0xbd5d8b93	-0.054088186
242	0xbcf7f31a	-0.030267287
243	0xbe1f6550	-0.15565991
244	0xbbd9ac47	-0.0066428515
245	0x3d8e954c	0.0696207
246	0xbdf832d9	-0.121190734
247	0xbe0050c0	-0.12530804
248	0xbda14649	-0.07874734
249	0x3d89701e	0.06710838
250	0x3e28f388	0.1649915
251	0x3e0c2662	0.13686517
252	0x3e4e4335	0.20142825
253	0x3e0de608	0.13857281
254	0xbdea16a9	-0.11430103
255	0xbe19b7e8	-0.15011561

fc1.bias f4 [128]
0	0xbdbc9cad	-0.09209571
1	0xbdb567dd	-0.08857701
2	0x3bdc87e3	0.006730066
3	0xbdf9a0a0	-0.1218884
4	0xbb339ea0	-0.002740778
5	0xbbde718f	-0.0067884396
6	0x3e28c871	0.16482712
7	0xbceae831	-0.02867517
8	0x3cbea297	0.023270888
9	0xbdbf0699	-0.0932743
10	0xbe50d4c3	-0.20393662
11	0x3d8cca62	0.06874539
12	0xbda8e99e	-0.08247684
13	0x3e0cb809	0.13742079
14	0x3e05948b	0.13044946
15	0xbd1854c9	-0.037190232
16	0x3d8900ad	0.06689582
17	0x3caf478e	0.021396425
18	0x3e173a16	0.14768252
19	0xbe389817	-0.18026768
20	0xbdc4825f	-0.09595179
21	0xbddf0c14	-0.108909756
22	0x3d37207b	0.04470871
23	0xbd10f6a7	-0.035391476
24	0xbdb84aca	-0.0899864
25	0xbdd5f7f6	-0.104476854
26	0xbc90fea7	-0.017699553
27	0xbe1041a7	-0.14087544
28	0xbe259329	-0.16169418
29	0x3df84a46	0.121235415
30	0x3c85adf1	0.016318293
31	0xbe1bc806	-0.15213022
32	0x3dbb3bc3	0.09142258
33	0x3c176821	0.009241135
34	0x3df1c420	0.11804986
35	0x3d874dd0	0.066066384
36	0x3d9c095b	0.07618972
37	0xbd723ca7	-0.059139874
38	0x3d535c3f	0.051601645
39	0xbd2ee82e	-0.042701893
40	0x3e3038c0	0.17209148
41	0xbd8e6526	-0.06952886
42	0x3d0bd11d	0.034134973
43	0xbe066820	-0.13125658
44	0x3dcfbb76	0.10143177
45	0x3d5d5dac	0.05404441
46	0xbdbc96aa	-0.092084244
47	0xbc8321fb	-0.016007414
48	0xbcc74091	-0.02432278
49	0x3e18d112	0.14923504
50	0x3d0ccf3d	0.034377325
51	0xbdc0ed55	-0.094202675
52	0xbdfcb533	-0.123392485
53	0x3d1f7786	0.038932346
54	0xbdc29035	-0.095001616
55	0xbd2750ed	-0.04084866
56	0x3e00bde4	0.12572438
57	0xbd6cebd6	-0.0578421
58	0xbcbd1345	-0.023080477
59	0xbd42c088	-0.047546893
60	0xbc086729	-0.008325377
61	0x3da9324d	0.08261547
62	0xbc4825c8	-0.012216039
63	0x3e326fc6	0.1742545
64	0xbd9bc3f7	-0.07605737
65	0x3d635401	0.055500034
66	0x3e06a9fe	0.13150784
67	0x3d772af6	0.060343705
68	0xbdd69ccf	-0.104791276
69	0x3d14ee00	0.036359787
70	0xbd7bf79a	-0.061515428
71	0x3e0fda99	0.14048232
72	0x3d19961c	0.03749667
73	0x3dcaec33	0.09908333
74	0xbe0af0df	-0.13568448
75	0xbd845c71	-0.06462944
76	0x3d5f5d78	0.054532498
77	0xbc99946d	-0.018747533
78	0x3cb7194c	0.02235093
79	0xbd50e7ac	-0.05100219
80	0xbe1e64a3	-0.15468077
81	0x3e376662	0.1791015
82	0xbdb66bfa	-0.08907314
83	0xbdcfbfb5	-0.10143987
84	0xbdcd9739	-0.10038609
85	0x3d6f776d	0.058463503
86	0x3e11face	0.1425583
87	0xbe10c232	-0.1413658
88	0x3e1062e1	0.1410022
89	0xbdfc17f0	-0.12309253
90	0xbaba974b	-0.0014235763
91	0x3a732da3	0.0009276515
92	0x3d0a7237	0.03380033
93	0xbd658281	-0.05603266
94	0xbdd94159	-0.10608167
95	0x3db37684	0.087628394
96	0xbd9e847e	-0.07740115
97	0xbd12cc9b	-0.03583966
98	0x3dca82e8	0.0988825
99	0x3e081f5e	0.13293216
100	0xbdd7e247	-0.10541206
101	0x3e263a52	0.16233185
102	0xbcf2b8d3	-0.029629147
103	0x3e4293ef	0.19001745
104	0xbd7d7b76	-0.06188532
105	0x3a9ed7e7	0.0012118787
106	0xbe4a0ba1	-0.19730999
107	0xbd8f7fbc	-0.07006785
108	0xbe01caa6	-0.1267496
109	0xbd003872	-0.03130383
110	0x3e2ad7ca	0.1668388
111	0xbe01ee67	-0.126886
112	0x3cb43945	0.021999964
113	0xbd86ad6f	-0.065760486
114	0xbd88a9c5	-0.06673006
115	0x3df73c73	0.12072077
116	0xbd10b365	-0.035327334
117	0xbdeb8b7c	-0.11501214
118	0x3d3a96bb	0.045553904
119	0x3d45c708	0.048285514
120	0xbd8ab3f4	-0.067726046
121	0x3e0b6d29	0.1361586
122	0xbc9d7ef4	-0.019225575
123	0x3dd8c361	0.105841406
124	0xbddf39c4	-0.1089969
125	0x3cceb09a	0.025230695
126	0x3cf51ae8	0.029920056
127	0xbd203345	-0.039111394

fc2.weight f4 [86, 128]
0	0x3d165803	0.03670503
1	0xbccbbfa0	-0.024871647
2	0xbd9980c9	-0.07495267
3	0x3d843b59	0.06456632
4	0xbd3e2b16	-0.04642781
5	0xbdbc811d	-0.09204314
6	0xbd9ae4d2	-0.07563175
7	0x3d780911	0.06055552
8	0x3d200504	0.039067283
9	0xbc54a2f7	-0.012978307
10	0xbd04ae2d	-0.03239267
11	0x3d02ae90	0.031904757
12	0xbdacfcb7	-0.08446639
13	0x3db3a046	0.08770804
14	0x3c6dd74b	0.014516662
15	0x3d6d2729	0.057898674
16	0xbd6b1786	-0.05739548
17	0xbd952c8a	-0.07283886
18	0x3db96154	0.09051767
19	0xbab5a4d2	-0.0013858324
20	0xbdac1c67	-0.08403855
21	0xbd96cbba	-0.073630765
22	0x3b74b3f3	0.0037338703
23	0xbc8146ab	-0.015780767
24	0xbd1531c2	-0.036424406
25	0x3c486fec	0.0122337155
26	0x3ce8ca52	0.028416786
27	0xbd0c97e5	-0.034324545
28	0xbd7f3854	-0.062309578
29	0x3af456b2	0.001864156
30	0xbcc31e4e	-0.023818161
31	0xbd6fccd3	-0.058544945
32	0x3d5ccbb6	0.05390521
33	0x3dbc23c8	0.09186512
34	0x3c5d7ab0	0.0135180205
35	0xbd22923d	-0.039690245
36	0x3dc528bb	0.09626909
37	0x3d053240	0.032518625
38	0x3d0e51b1	0.034745876
39	0x3c786b0b	0.01516224
40	0xbd968d5a	-0.073511794
41	0x3d4b0c71	0.049572412
42	0xbd506811	-0.050880495
43	0xbdc11f1f	-0.09429764
44	0x3ab4a8b3	0.0013783186
45	0xbdaca987	-0.08430772
46	0x3cc61f7c	0.024184935
47	0x3d284a4a	0.041086473
48	0xbc35bf19	-0.0110929245
49	0x3caaed30	0.020865053
50	0x3b03b5f0	0.0020097457
51	0x3d05e075	0.032684762
52	0xbdf46de1	-0.1193502
53	0xbdbf35ef	-0.09336459
54	0xbd3695eb	-0.044576567
55	0xbd1537c9	-0.036430154
56	0x3716ea7e	8.995294e-06
57	0xbd927df3	-0.07152929
58	0xbc12e15b	-0.008964862
59	0xbdd1899e	-0.102313265
60	0x3db4a0ef	0.08819758
61	0xbcfcffe3	-0.030883735
62	0x3ae19877	0.0017211576
63	0x3ce30169	0.027710633
64	0x3df255a3	0.1183274
65	0x3d8668f5	0.06562988
66	0x3da5a23f	0.080875866
67	0xbe05eb5c	-0.13078064
68	0xbc07ef17	-0.00829675
69	0x3d965b99	0.073416896
70	0xbd10f4e0	-0.03538978
71	0x3df4941a	0.11942311
72	0x3cd1a565	0.025591562
73	0x3cdc3873	0.026882386
74	0xbcb78639	-0.02240287
75	0xbd5fb219	-0.054613207
76	0x3d8e8719	0.069593616
77	0xbca5c8ce	-0.020237353
78	0xbcfc1fca	-0.030776877
79	0x3c013763	0.00788674
80	0xbc69fa04	-0.0142808
81	0xbc640f09	-0.0139196
82	0x3d1774b8	0.036976546
83	0x3cf446d5	0.029818932
84	0xbcad3830	-0.021144956
85	0xbcf8a417	-0.030351682
86	0xbaae1359	-0.0013280913
87	0xbd668651	-0.056280438
88	0xbd4418a7	-0.047875073
89	0xbd27bdd0	-0.040952504
90	0x3c21bab1	0.009871171
91	0x3d274cd5	0.040844757
92	0x3dc35a4e	0.095387086
93	0xbcd202ae	-0.025636043
94	0x3d963380	0.073340416
95	0x3d827189	0.06369311
96	0xbd8870ef	-0.066621654
97	0x3d51dbf0	0.05123514
98	0xbd8b2c82	-0.067955986
99	0xbd5aa325	-0.053378243
100	0x3c8ffe5c	0.017577343
101	0xbc6ee46f	-0.01458083
102	0x3c08bc9d	0.00834575
103	0xbd245f48	-0.04012993
104	0xbde2ef8d	-0.11080847
105	0x3bebba28	0.0071938224
106	0xba942783	-0.0011303279
107	0xbd6ccb1e	-0.057810895
108	0x3d060be1	0.032726172
109	0xbdb03aa8	-0.08604938
110	0xbe0422a4	-0.1290384
111	0x3d643081	0.05571032
112	0x3dbef2ff	0.093236916
113	0xbc530f53	-0.012882072
114	0xbd059633	-0.032613944
115	0x3d544d81	0.051831726
116	0xbda2bf0a	-0.07946594
117	0x3d8caddf	0.06869101
118	0x3d4a33a8	0.04936567
119	0x3c1825f3	0.009286392
120	0xbda2a4e6	-0.07941608
121	0x3d403a32	0.0469305
122	0x3d9dc018	0.077026546
123	0x3cde3ef4	0.027129628
124	0xbbe4c864	-0.0069818962
125	0x3d79970b	0.06093506
126	0xbc8e1f37	-0.017348869
127	0x3cd05c20	0.025434554
128	0x3d2418f7	0.04006287
129	0xb9a53c25	-0.00031516064
130	0xbd1e54a6	-0.038654946
131	0x3dd2fed7	0.10302513
132	0x3dd51e62	0.10406186
133	0x3d75fff3	0.060058545
134	0xbd9d5ae3	-0.07683351
135	0xbdf4e2e4	-0.119573385
136	0xbdb5ec69	-0.08882982
137	0x3d803700	0.062604904
138	0x3b198c22	0.0023429473
139	0xbccc53ac	-0.024942242
140	0xbd6e65ce	-0.058202557
141	0x3d53e820	0.051735044
142	0x3da0c96c	0.07850918
143	0x3d0fea6e	0.03513568
144	0x3d308767	0.04309788
145	0xbd0531a1	-0.032518033
146	0xbd17f379	-0.037097428
147	0x3d714e82	0.05891276
148	0xbd0cef32	-0.034407802
149	0x3d025c33	0.03182621
150	0x3e0acbae	0.1355426
151	0xbe01dd33	-0.12682037
152	0x3dbdc189	0.092654295
153	0xbd40c29d	-0.047060598
154	0x3dab86c8	0.08375317
155	0x3c67c2b1	0.014145539
156	0xbd27a00c	-0.040924117
157	0x3cfb7b54	0.030698456
158	0xbcd7fb97	-0.026365085
159	0xbb290f5e	-0.0025796513
160	0xbcb6c03b	-0.02230846
161	0xbbd2cd7b	-0.0064331866
162	0xbc2ed0ab	-0.0106698675
163	0xbdd179f0	-0.10228336
164	0xbd836fad	-0.06417785
165	0xbd37c2c3	-0.044863474
166	0x3dd9a248	0.10626656
167	0x3dd43a5f	0.10362696
168	0x3b1b07a5	0.002365568
169	0xbba1e7bc	-0.004940955
170	0x3c98268b	0.018573066
171	0xbd280572	-0.041020818
172	0xbc5f4e41	-0.013629497
173	0xbc15699d	-0.009119418
174	0xbe00a6a6	-0.12563571
175	0x3d0f01dc	0.034913883
176	0xbdcc70f7	-0.09982484
177	0xbddf6d71	-0.10909546
178	0xbd8a0646	-0.06739478
179	0xbc8eebc5	-0.017446408
180	0xbbfd3e89	-0.007728402
181	0xbd1ec04a	-0.0387576
182	0x3d5aec00	0.053447723
183	0xbd650c06	-0.05591967
184	0x3d5ed0e3	0.05439843
185	0x3c096028	0.008384742
186	0x3bf0244a	0.0073285447
187	0xbd55a41c	-0.05215846
188	0xbc865ba1	-0.016401114
189	0x3cce15ea	0.025156934
190	0xbd0dbc4a	-0.034603395
191	0xbdc1e2af	-0.094670646
192	0x3d8674af	0.065652244
193	0x3c1aa5f3	0.009438979
194	0xbdeaf185	-0.114718474
195	0x3c9f51a8	0.019448116
196	0xba7446db	-0.00093184196
197	0x3d4ccf9b	0.050002676
198	0xbcbe4756	-0.023227375
199	0x3d96daa3	0.073659204
200	0x3d50de54	0.05099328
201	0x3ce99c49	0.028516905
202	0x3ce53aef	0.027982203
203	0x3d8edd10	0.06975758
204	0xbd5f6f58	-0.054549545
205	0xbcdabe98	-0.02670221
206	0x3c0bfc15	0.008543988
207	0xbdcbfd08	-0.09960371
208	0x3d0518f1	0.03249449
209	0x3d76b545	0.060231466
210	0xbdd06688	-0.10175806
211	0x3c907cf7	0.017637713
212	0xbd502988	-0.050820857
213	0x3d3f0b8c	0.04664187
214	0x3d763e8c	0.060118243
215	0xbcc33179	-0.023827301
216	0xbd2469a2	-0.0401398
217	0x3c1259fe	0.008932589
218	0xbdcc3691	-0.09971345
219	0x3d225488	0.039631397
220	0xbd140ac3	-0.036143076
221	0xbda25c80	-0.07927799
222	0xbd10f67e	-0.035391323
223	0xbdb0f767	-0.08640938
224	0xbd396f25	-0.04527201
225	0x3d8c6928	0.068559945
226	0xbdd0818a	-0.101809576
227	0xbd895e2f	-0.06707417
228	0x3e22a362	0.15882638
229	0x3de6314d	0.11239872
230	0xbd0fa21f	-0.03506672
231	0xbdd91a98	-0.106007755
232	0xbd0a1e54	-0.03372033
233	0x3cae0a77	0.021245224
234	0xbd91263c	-0.07087371
235	0xbd6350fd	-0.05549716
236	0xbd1e785f	-0.038689014
237	0xbc788126	-0.01516751
238	0x3cb0de47	0.021590365
239	0xbd149dca	-0.036283292
240	0x3ceefd43	0.029173499
241	0xbd0c8f82	-0.034316547
242	0x3d8f6483	0.07001593
243	0x3c8df95f	0.017330823
244	0xbdbda405	-0.092598
245	0x3d2d8d95	0.04237135
246	0x3be94207	0.007118467
247	0xbb710b44	-0.0036780396
248	0xbce1796b	-0.027523717
249	0x3da1eb9a	0.079062656
250	0x3da84cf3	0.08217802
251	0x3ca75f47	0.020431174
252	0x3cd16754	0.025561966
253	0xbdb6a45a	-0.08918066
254	0x3cedbe30	0.029021353
255	0xbc03308b	-0.008007179

fc2.bias f4 [86]
0	0xbd496261	-0.049166087
1	0xbcb5f03a	-0.022209276
2	0xbcd949ee	-0.02652451
3	0xbd08ffc9	-0.03344706
4	0xbc1fe8ca	-0.009760091
5	0xbdac6cbd	-0.08419178
6	0xbaf6d9db	-0.0018833237
7	0x3c43e7b5	0.011957099
8	0x3ceff235	0.029290298
9	0x3d25f04d	0.04051237
10	0x3d0d9dca	0.034574308
11	0xbd3a8563	-0.045537364
12	0xbcb5ff65	-0.022216508
13	0x3dd703dd	0.10498784
14	0x3c1ea7d4	0.009683568
15	0xbc042819	-0.008066201
16	0x3ba8c642	0.0051505873
17	0x3d3c0294	0.045900896
18	0xbc1f4d4e	-0.009723021
19	0xbd95c7d2	-0.07313503
20	0xbab7305d	-0.0013976205
21	0x3c1d70f1	0.009609447
22	0x3d13eb79	0.036113236
23	0x3d96fe3c	0.0737271
24	0x3dbf4929	0.09340126
25	0xbdcd7de3	-0.100337766
26	0x3c7acf72	0.015308248
27	0x3c165567	0.009175635
28	0xbda4bc94	-0.08043781
29	0x3d257b1c	0.04040061
30	0x3c565f4f	0.013084247
31	0x3d8b90e4	0.06814745
32	0xbc6a9361	-0.014317364
33	0x3cfb3107	0.030663026
34	0x3c84a9d5	0.016194263
35	0xba100423	-0.00054937805
36	0x3d500928	0.050789982
37	0xbda077cb	-0.07835349
38	0x3b47e757	0.003050288
39	0x3dd3410a	0.103151396
40	0x3db83766	0.089949414
41	0x3d3020a1	0.042999867
42	0x3d088960	0.033334136
43	0x3e1402a0	0.14454126
44	0x3bccec8c	0.0062537845
45	0x3d077a15	0.03307541
46	0x3c333158	0.010937057
47	0x3cde0352	0.027101193
48	0x3db5aa73	0.08870401
49	0x3de84ba1	0.1134255
50	0x3d9194d4	0.07108465
51	0xbcc9ab40	-0.024617791
52	0xbdf4d2ae	-0.119542465
53	0xbdbdfc40	-0.092766285
54	0x3c8b1b11	0.01698068
55	0x3da71adb	0.08159419
56	0x3d835c30	0.06414068
57	0xbd026ec4	-0.031843916
58	0x3a3defdd	0.000724552
59	0xbd5bef8c	-0.053695247
60	0xbccabe7a	-0.02474903
61	0x3ca7c9d0	0.020481974
62	0xbd64a949	-0.055825505
63	0x3c14d495	0.009083887
64	0x3d10ea55	0.035379726
65	0x3dc3886c	0.09547505
66	0x3d814845	0.063126124
67	0x3a51521c	0.00079849525
68	0xbdc6fc05	-0.09716038
69	0x3d094b5d	0.033519138
70	0xbdc8ffeb	-0.098144375
71	0xbbdc7bec	-0.00672864
72	0x3c233b46	0.009962862
73	0x3bb78ea1	0.0056017195
74	0x3dd47dde	0.1037557
75	0xbdac7085	-0.08419899
76	0x3d6aeb7d	0.057353485
77	0xba79d2ee	-0.0009530027
78	0xbd955e4a	-0.07293375
79	0x3d4ee945	0.050515432
80	0x3d8bb992	0.06822504
81	0x3cf52882	0.029926542
82	0x3d35af7a	0.0443568
83	0xbc438456	-0.011933407
84	0xbcabb497	-0.020960135
85	0xbc9ebd18	-0.019377276

fc3.weight f4 [29, 86]
0	0xbd152df7	-0.03642079
1	0x3c9b317c	0.018944494
2	0xbceb017b	-0.02868723
3	0x3df14e8a	0.11782558
4	0xbcc04e35	-0.023474792
5	0x3d63174b	0.055442136
6	0x3d92e445	0.07172445
7	0xbdcc6438	-0.09980053
8	0x3c804bde	0.015661176
9	0x3c8a7938	0.016903505
10	0x3de8a6fb	0.11359974
11	0x3df2f3a8	0.1186288
12	0xbe09fb23	-0.13474707
13	0x3d4e5ea1	0.050383214
14	0x3d941c57	0.07231968
15	0x3e5b1bce	0.21397325
16	0xbdf21ef2	-0.118223086
17	0x3dcbde14	0.099544674
18	0xbdc9c1e1	-0.098514326
19	0xbd7e33b0	-0.06206101
20	0xbccf5097	-0.025306983
21	0xbceeeba0	-0.02916509
22	0xbd76a867	-0.060219195
23	0xbd89b592	-0.06724085
24	0x3d2de892	0.042458124
25	0x3db93bea	0.09044631
26	0x3e0744a2	0.13209775
27	0x3c84cac8	0.016209975
28	0x3d93f1cf	0.07223856
29	0xbd839b71	-0.064261325
30	0x3d713dc1	0.058896784
31	0x3cf5a606	0.029986393
32	0xbd0f9532	-0.035054393
33	0xbd8e80a9	-0.06958134
34	0xbd960483	-0.07325079
35	0x3d2a94bc	0.04164575
36	0x3d43b142	0.047776468
37	0x3d9d9877	0.07695096
38	0x3e11dfe9	0.14245571
39	0xbda12365	-0.07868079
40	0x3db43a57	0.0880019
41	0xbdce3c0c	-0.10070047
42	0xbbf4f3ca	-0.007475351
43	0xbdfa5543	-0.12223294
44	0xbc86c9d2	-0.016453657
45	0xbda08d17	-0.07839411
46	0xbcd48d9c	-0.02594643
47	0x3da5feb4	0.081052214
48	0x3d336dd2	0.043805905
49	0x3bd32838	0.0064440034
50	0xbce9a36c	-0.028520308
51	0xbad4c93f	-0.0016234292
52	0xbbad0f59	-0.0052813706
53	0xbc6d1faf	-0.014472886
54	0xbdfbf3b6	-0.123023435
55	0x3c31f213	0.010860938
56	0xbdb4d052	-0.088287964
57	0x3db05ada	0.086110786
58	0x3e133924	0.14377266
59	0x3d024f40	0.03181386
60	0x3dafdc2f	0.085869186
61	0xbd2ce92c	-0.042214558
62	0x3dfada38	0.12248653
63	0x3d886d35	0.066614546
64	0x3e13e3e9	0.1444241
65	0xbe06ef38	-0.13177192
66	0xbd7428ac	-0.0596091
67	0x3d988c7a	0.07448669
68	0xbd3c25c2	-0.045934446
69	0xbd96e626	-0.07368116
70	0x3bdf95bd	0.00682327
71	0x3d374540	0.044743776
72	0xbd193d99	-0.03741226
73	0x3d6300ed	0.055420805
74	0x3dd9eab4	0.10640469
75	0x3d2f8052	0.042846985
76	0x3c8ccb52	0.017186794
77	0xbd1076b6	-0.03526946
78	0xbca4474a	-0.020053525
79	0xbd405546	-0.046956323
80	0x3bbbaa7b	0.00572711
81	0xbdcec7e0	-0.10096717
82	0x3b2d74b5	0.0026467268
83	0x3d846480	0.06464481
84	0xbd79ef74	-0.061019376
85	0xbdf465a9	-0.11933453
86	0xbdc8626c	-0.097843975
87	0x3ccca6e6	0.024981927
88	0xbdb6a913	-0.08918967
89	0x3c9ffe97	0.019530578
90	0x3cb8b03c	0.022544973
91	0xbc33adaa	-0.010966698
92	0x3d07efc8	0.033187658
93	0x3c92e44b	0.017931124
94	0xbdc0de42	-0.09417392
95	0x3e12e507	0.1434518
96	0x3de059dd	0.1095464
97	0x3d5e41fc	0.054262146
98	0x3d76ccbc	0.060253844
99	0x3c1274be	0.008938966
100	0x3dd4c93d	0.10389946
101	0x3e492c36	0.19645771
102	0xbe1daec2	-0.15398696
103	0x3dce06eb	0.10059913
104	0xbd2fef4a	-0.042952813
105	0x3dac8806	0.08424382
106	0xbdf8cfba	-0.12148996
107	0xbe2fab28	-0.17155135
108	0xbaa26275	-0.0012388962
109	0xbd45e890	-0.048317492
110	0x3dc6771b	0.09690686
111	0xbcfaf5a2	-0.030634705
112	0x3d4dcd76	0.05024477
113	0xbddb646c	-0.10712513
114	0xbda18c12	-0.078880444
115	0x3c45240c	0.01203252
116	0xbd24f8a5	-0.04027619
117	0x3b0ff230	0.0021964423
118	0xbe01fc85	-0.12693985
119	0x3cf63d93	0.030058658
120	0xbbc606a0	-0.00604327
121	0xbd9989f6	-0.07497017
122	0xbcd388b8	-0.025822029
123	0x3e0d365d	0.13790269
124	0x3df74ea8	0.12075549
125	0xbcec0637	-0.028811557
126	0x3df4e573	0.119578265
127	0xbd8feb4f	-0.070273034
128	0xbd4b7473	-0.0496716
129	0xbd2fc201	-0.042909626
130	0x3e0a3181	0.13495447
131	0xbde4bc43	-0.111687206
132	0xbcc1c88e	-0.023655202
133	0x3d7e69bf	0.062112566
134	0x3db231ab	0.0870088
135	0xbd8814ca	-0.0664459
136	0xbe0e4842	-0.13894752
137	0xbd0db388	-0.034595042
138	0x3e00d774	0.12582189
139	0xbd2e2307	-0.042513873
140	0xbd7e3e2a	-0.062071003
141	0xbd2a06a9	-0.041510258
142	0x3d764666	0.06012573
143	0x3c463d8a	0.012099633
144	0x3dbc5dd0	0.09197581
145	0x3dc65601	0.09684373
146	0x3d8aa362	0.06769444
147	0x3db0df7f	0.086363785
148	0x3dbb7c69	0.09154589
149	0x3d4b7f0d	0.049681712
150	0x3db74ef9	0.0895061
151	0xbdda06d6	-0.10645835
152	0xbce205f7	-0.027590735
153	0x3e1a0606	0.1504136
154	0xbd85578e	-0.0651084
155	0x3dbaad84	0.09115127
156	0x3d54098d	0.05176692
157	0x3e13059d	0.1435761
158	0xbde5d02d	-0.11221347
159	0x3d4a5bf2	0.049404092
160	0xbe089d88	-0.13341343
161	0x3d8c3703	0.0684643
162	0x3c42dd76	0.011893621
163	0x3dbc3bb9	0.09191079
164	0xbcd839ac	-0.026394688
165	0x3c1a8a9c	0.009432461
166	0x3d4097f1	0.047019903
167	0xbd504edf	-0.050856467
168	0x3d48a0d0	0.048981488
169	0x3d0469e2	0.03232754
170	0x3d9c55f9	0.076335855
171	0xbd9efc46	-0.07762961
172	0x3e019583	0.1265469
173	0xbcf829c0	-0.030293345
174	0xb80469aa	-3.156966e-05
175	0xbd542668	-0.05179444
176	0xbc4d4732	-0.012529181
177	0x3c5bba83	0.013411167
178	0xbc6703ca	-0.0141000245
179	0x3e12c595	0.14333184
180	0x3d40d2a2	0.047075875
181	0xbd1515dc	-0.0363978
182	0x3d94aa74	0.07259074
183	0xbdf08702	-0.11744501
184	0xbd1f2dd6	-0.038862072
185	0x3cb7b909	0.022427099
186	0xbd2bbe6f	-0.04192966
187	0xbdf8907e	-0.12136935
188	0x3e3c9a86	0.18418321
189	0x3c22b16c	0.009929996
190	0x3d12a4f3	0.03580184
191	0x3d2f6bf6	0.04282757
192	0x3dd7895a	0.105242446
193	0x3e29d104	0.1658364
194	0xbd96f6cb	-0.07371291
195	0x3da75803	0.08171084
196	0xbd9dec67	-0.07711106
197	0x3d51ca18	0.051218122
198	0xbc965f51	-0.018355997
199	0xbd02db19	-0.03194723
200	0xbd88a169	-0.066714115
201	0x3d1d1b61	0.03835619
202	0x3c421246	0.011845177
203	0x3dd2c307	0.10291105
204	0x3d58ce44	0.052931085
205	0xbb4366ba	-0.0029815868
206	0x3d8709ce	0.06593667
207	0x3db0b899	0.08628959
208	0xbd25d63d	-0.040487517
209	0x3da8738e	0.08225165
210	0x3d04d5ce	0.032430463
211	0x3e045919	0.12924613
212	0x39e9a530	0.00044564297
213	0x3dc75e03	0.09734728
214	0x3c147d61	0.009063096
215	0x3d99d59c	0.07511446
216	0xbdcaf81b	-0.099106036
217	0x3aca2387	0.0015421965
218	0x3d233441	0.039844755
219	0xbc8a351d	-0.01687103
220	0xbd29c72c	-0.04144971
221	0x3db1924f	0.08670484
222	0x3dffb6da	0.12486048
223	0x3e281ef5	0.16418059
224	0xbe0a9c7e	-0.1353626
225	0xbb2a1721	-0.0025953727
226	0x3db30344	0.08740857
227	0xbd3cee17	-0.046125498
228	0xbcda589e	-0.026653584
229	0xbd02f0f2	-0.031968065
230	0xbe0625d0	-0.13100362
231	0xbcca47d0	-0.024692446
232	0xbddf01de	-0.10889028
233	0xbdd30842	-0.103043094
234	0x3c58f319	0.013241553
235	0xbcf3811b	-0.029724648
236	0x3c5be1cc	0.013420533
237	0xbce89592	-0.028391633
238	0xbccda245	-0.02510179
239	0xbd7d833e	-0.06189274
240	0x3dc5cf96	0.096587345
241	0x3c9180a4	0.017761536
242	0x3d7be9be	0.06150221
243	0xbe38846c	-0.18019265
244	0x3e46cc05	0.19413765
245	0xbdbe09d4	-0.09279218
246	0x3cb7cf69	0.022437768
247	0x3df41208	0.11917502
248	0x3d9d9a02	0.0769539
249	0xbd99841d	-0.07495902
250	0xbd0d358b	-0.03447489
251	0x3d43d79b	0.04781304
252	0xbd8897b9	-0.06669564
253	0x3db53d47	0.08849578
254	0xbddfaf9a	-0.10922165
255	0xbd9badd7	-0.07601517

fc3.bias f4 [29]
0	0x3d966923	0.07344272
1	0x3dc66b73	0.09688463
2	0x3d6523af	0.055942234
3	0x3daf75e2	0.08567406
4	0xbc61b41d	-0.0137758525
5	0xbdbbae76	-0.09164135
6	0xbce0aa55	-0.02742497
7	0xbbb4e5cf	-0.0055205594
8	0x3a0ac0c6	0.00052930077
9	0x3e040dc2	0.12895873
10	0xbd59f138	-0.05320856
11	0x3c7520cd	0.014961434
12	0xbc717f82	-0.014739873
13	0x3ccb515b	0.024819067
14	0xbdb75099	-0.0895092
15	0x3d92d06a	0.07168658
16	0x3d84004e	0.064453706
17	0x3d8fff72	0.07031144
18	0x3de40510	0.11133778
19	0x3dbd116c	0.092318386
20	0x3d4fc4e5	0.050724883
21	0x3d6a1bf5	0.05715557
22	0xbd66e279	-0.056368325
23	0x3da01073	0.078156374
24	0x3d91a462	0.07111432
25	0x3dc25d61	0.09490467
26	0xbd2722a8	-0.040804535
27	0xbd9414f0	-0.07230556
28	0x3d2e0536	0.04248544

fc4.weight f4 [1, 29]
0	0xbdf88159	-0.12134046
1	0xbe266847	-0.16250716
2	0x3e38397a	0.17990676
3	0x3d874663	0.06605222
4	0xbe783dc9	-0.24242319
5	0x3de4247e	0.11139773
6	0x3dd11df7	0.102107935
7	0xbdbfce03	-0.093654655
8	0xbdf11480	-0.11771488
9	0x3e0c1d88	0.1368314
10	0xbe3130be	-0.1730375
11	0x3e6fd1a3	0.23419814
12	0xbdfbce4b	-0.12295207
13	0xbe465a4a	-0.1937038
14	0xbe54553c	-0.2073564
15	0xbe36d6db	-0.17855398
16	0xbe27ade7	-0.16374932
17	0x3e60e838	0.21963584
18	0x3e67c834	0.22634965
19	0xbdcfdbd3	-0.1014935
20	0xbdd014f5	-0.10160247
21	0xbe6a94e9	-0.22908367
22	0x3e23a0e1	0.15979339
23	0xbe614d1c	-0.22002071
24	0xbde3eb65	-0.11128882
25	0xbdcdd6e0	-0.1005075
26	0xbdd18aa5	-0.102315225
27	0xbdec4f1f	-0.11538529
28	0x3ded58b4	0.115891844
