model_state/model1.pt (torch, 1817 bytes, 3 tensors)

fc1.weight f4 [5, 10]
000000 00 ae 30 3a 12 8c 51 3e 4e be 54 3e 45 e9 81 3e
       0.0006739795 0.20463589 0.2077572 0.25373283
000010 0e ac 3d 3e 7e c3 7a be 7a 13 68 3e 48 4c 6b 3d
       0.18522665 -0.24488637 0.2266368 0.057445794
000020 40 0c ca bc 53 d2 88 3e 0c 24 56 be be 1c cb bd
       -0.024664044 0.26722965 -0.20912188 -0.099175915
000030 68 05 9d 3d 61 d3 24 be ad 08 82 3e 93 f5 3d be
       0.07667047 -0.1609626 0.25397244 -0.1855071
000040 0e d6 d9 bd bc 3b 59 be e4 da 1b 3e d9 f7 9d 3e
       -0.10636531 -0.21214193 0.15220219 0.30853155
000050 36 b0 a8 be 64 76 65 be 22 61 40 3e e5 45 6e be
       -0.32946938 -0.22408444 0.18787053 -0.2326885
000060 0b b1 1e be fa 74 89 3e a9 71 83 be 82 ae 22 3e
       -0.15497224 0.2684706 -0.25672653 0.15886882
000070 b7 44 fa 3d 7d ed cb be 11 d0 48 3f fc 8c 03 3f
       0.122201376 -0.39829627 0.78442484 0.51387
000080 80 20 a9 3e df c0 2e 3e e4 b1 11 3f d6 52 19 3e
       0.33032608 0.17065762 0.56912065 0.14973006
000090 5a 5c 8c 3e 83 6a d5 3e 6a 42 cc 3e 28 70 fc 3e
       0.2741421 0.41682824 0.3989442 0.49304318
0000a0 99 53 15 bd 2c 0f 10 3f 8d ae 0b 3f 52 5d e6 be
       -0.036456678 0.5627315 0.5456322 -0.44993073
0000b0 d3 c3 49 be 0d d7 b6 bc 0d 8e fe be cf 81 71 be
       -0.19703607 -0.022319341 -0.4971775 -0.23584674
0000c0 af 8a 2c 3c bd 8e 41 be
       0.010531112 -0.18902107

fc1.bias f4 [5]
000000 ca 80 5d be de 1a 1c be bd 38 e9 3d db 82 fa 3e
       -0.2163116 -0.15244624 0.11387775 0.4892796
000010 df e4 a1 3d
       0.07904982

fc3.weight f4 [1, 5]
000000 c0 ec 9b bc 2e 18 d4 be 0b 64 b0 be 41 5b f0 3e
       -0.01903379 -0.41424698 -0.34451327 0.4694462
000010 50 b7 01 bf
       -0.5067034
