model_state/model_1.pt (torch, 71383 bytes, 5 tensors)

fc1.weight f4 [64, 254]
0.07335357 0.023742951 -0.019273741 -0.056387767 -0.01711912 -0.054902077 -0.09514656 -0.09681044
0.05284498 0.024447177 0.050099596 -0.05553348 -0.08828577 -0.059368737 -0.07994528 0.013205282
0.010005123 -0.005197026 0.030524813 0.03400712 -0.054053657 0.09908894 0.15855049 0.093105145
0.06153395 0.0500031 -0.015077836 -0.0071004727 -0.008450188 -0.045917287 -0.036667794 0.055376545
-0.009417535 -0.09660302 -0.07464988 0.00012559757 0.022416616 -0.03500271 0.02140869 0.08550699
0.07164632 0.0104207015 -0.007345603 0.032387972 0.034017343 0.08221201 0.07196458 0.08507804
0.028866066 0.075298704 -0.04390726 -0.040471423 0.091647856 -0.055842552 -0.1189725 -0.068274625
-0.11237466 -0.07018786 -0.020981338 -0.048076592 -0.036051743 -0.025693897 0.07506753 0.07527936
-0.031785633 0.059380103 -0.07334617 -0.016186723 -0.036011606 -0.0723515 -0.019014347 -0.0064750947
0.012136043 -0.014410668 0.03381431 0.03338399 -0.06932227 -0.14862587 -0.11706202 -0.17305598
-0.072514825 -0.05045502 0.042926766 0.017444344 -0.0075830985 0.031595 0.13094248 0.047335047
-0.0064026476 -0.07486728 -0.10053512 -0.071724325 0.057327047 0.009999032 0.06202362 -0.013545695
-0.08227833 0.27724507 -0.07107388 -0.06781218 0.022703005 -0.030523067 0.027033882 -0.031578526
-0.059612587 0.071029685 0.077822745 0.006610905 0.109263 0.06811658 0.068130955 0.070611835
-0.029246977 0.010693275 -0.0011582596 -0.092629135 -0.059026882 0.031718954 -0.014361878 -0.077409826
0.026841732 0.030827183 0.042919498 0.0038628432 -0.020221103 -0.047562826 -0.067160524 -0.026445782
-0.028571494 0.03657837 0.08671853 0.062136382 0.019210987 -0.032796897 -0.08358451 -0.026697123
0.017246768 -0.02260965 0.085915565 0.033101223 0.048957366 -0.09655865 -0.072133556 -0.011301797
-0.041905947 0.06480762 0.007783418 0.04923939 -0.03152481 -0.014833094 -0.018083563 -0.060058445
-0.14896944 0.04430748 0.061284423 0.058334712 -0.025650635 0.024302907 -0.06742284 0.06874847
-0.021357518 -0.01989502 0.03357948 0.011151148 0.06279649 0.07833125 0.00012673145 0.032885976
0.019466206 0.033868697 -0.06344504 -0.013356264 -0.07723266 0.02107515 -0.058541853 0.020623429
0.00050131173 0.033214215 0.03671183 0.11715794 0.0037794034 0.047207657 0.05229547 -0.03798786
0.018600587 0.10879516 -0.069036834 -0.0720457 0.05359688 0.033775944 -0.0010133962 0.08678826
0.099800564 -0.035879556 -0.06339727 -0.051056556 -0.011752608 -0.023318183 0.012125714 0.054606125
0.010541834 -0.09197327 -0.029896846 -0.0070212577 -0.011903672 -0.015577095 0.018174583 0.10789432
0.06969364 0.04262619 -0.018424924 0.011219812 -0.0009128534 -0.039901167 -0.008207371 0.10444217
0.007971049 0.083482735 -0.039491672 0.073684834 0.013395022 -0.008989536 -0.04895548 -0.02107458
0.008636979 0.023788545 -0.005271738 -0.004360258 0.047563136 -0.107987694 -0.1344044 -0.05770476
0.004914235 -0.016887559 0.055035956 0.0119891465 -0.045426298 -0.04133195 -0.16113558 -0.029192226
-0.1815233 0.07743694 0.03879172 0.0038248273 -0.10461032 -0.016423563 0.0798348 0.06712294
-0.0035961173 0.07842416 -0.07957128 -0.08789333 -0.03450022 -0.08686134 -0.025404977 0.044301666
00000000: 663a 963d 9480 c23c f7e3 9dbc dcf6 66bd
00000010: 663d 8cbc 00e1 60bd 33dc c2bd 8d44 c6bd
00000020: fa73 583d 7245 c83c 3c35 4d3d 1377 63bd
00000030: 2bcf b4bd a22c 73bd 5aba a3bd f85a 583c
00000040: 87ec 233c d04b aabb 2c0f fa3c 0d4b 0b3d
00000050: 5e67 5dbd 24ef ca3d 0f5b 223e e9ad be3d
00000060: 060b 7c3d 0dd0 4c3d 0709 77bc 15ab e8bb
00000070: a872 0abc c413 3cbd f830 16bd 84d2 623d
00000080: 014c 1abc ced7 c5bd 09e2 98bd d7b2 0339
00000090: 0da3 b73c 005f 0fbd 4761 af3c 4a1e af3d
000000a0: 4ebb 923d 97bb 2a3c 62b3 f0bb 40a9 043d
000000b0: c555 0b3d c55e a83d 2a62 933d 653d ae3d
000000c0: 8778 ec3c 3536 9a3d 19d8 33bd 5dc5 25bd
000000d0: dfb1 bb3d 29bb 64bd dba7 f3bd 91d3 8bbd
000000e0: b024 e6bd a7be 8fbd 0ee1 abbc f6eb 44bd
000000f0: feaa 13bd 027c d2bc 01bd 993d 112c 9a3d
00000100: a731 02bd 8d38 733d 8436 96bd 059a 84bc
00000110: e880 13bd 062d 94bd fac3 9bbc 082d d4bb
00000120: 41d6 463c b91a 6cbc e080 0a3d a7bd 083d
00000130: d6f8 8dbd 6131 18be 36be efbd 9635 31be
00000140: a782 94bd eca9 4ebd fad3 2f3d 71e7 8e3c
00000150: a47b f8bb c269 013d c915 063e 65e2 413d
00000160: 4dcd d1bb 0454 99bd 5be5 cdbd 34e4 92bd
00000170: c4cf 6a3d fbd2 233c 7b0c 7e3d c3ee 5dbc
00000180: 8b81 a8bd 11f3 8d3e 2f8f 91bd 1de1 8abd
00000190: a7fb b93c 830b fabc 2976 dd3c 7c58 01bd
000001a0: 542c 74bd 0378 913d 8861 9f3d 4aa0 d83b
000001b0: 48c5 df3d b580 8b3d 3e88 8b3d f09c 903d
000001c0: 5b97 efbc d932 2f3c bed0 97ba 58b4 bdbd
000001d0: 2cc6 71bd bceb 013d 154e 6bbc 0b89 9ebd
000001e0: 31e3 db3c 4a89 fc3c 5bcc 2f3d c127 7d3b
000001f0: baa6 a5bc 3dd1 42bd 758b 89bd d3a4 d8bc
00000200: c40e eabc 33d3 153d 7c99 b13d b882 7e3d
00000210: 5c60 9d3c 0a56 06bd 5b2e abbd edb3 dabc
00000220: 1849 8d3c df37 b9bc 80f4 af3d 2695 073d
00000230: 8587 483d 8bc0 c5bd c2ba 93bd 2c2b 39bc
00000240: 92a5 2bbd dcb9 843d 0b0c ff3b 3eaf 493d
00000250: 2920 01bd 8106 73bc fb23 94bc d8ff 75bd
00000260: 728b 18be c37b 353d 6005 7b3d 61f0 6e3d
00000270: 4821 d2bc e416 c73c fc14 8abd ffcb 8c3d
00000280: f6f5 aebc e2fa a2bc a38a 093d 4eb3 363c
00000290: 729b 803d 226c a03d 37e3 0439 72b3 063d
000002a0: 9877 9f3c e7b9 0a3d 79ef 81bd 3bd4 5abc
000002b0: 282c 9ebd cba5 ac3c 95c9 6fbd 77f2 a83c
000002c0: 766a 033a a10b 083d 255f 163d 81f0 ef3d
000002d0: deaf 773b d15c 413d c633 563d 2999 1bbd
000002e0: 4260 983c ffcf de3d 2f63 8dbd b28c 93bd
000002f0: 6788 5b3d a558 0a3d efd3 84ba 0bbe b13d
00000300: 3d64 cc3d 71f6 12bd 6ed6 81bd ae20 51bd
00000310: 038e 40bc c605 bfbc eeaa 463c acaa 5f3d
00000320: a8b7 2c3c 7b5c bcbd 3bea f4bc 9412 e6bb
00000330: 9e07 43bc 1237 7fbc dde2 943c b2f7 dc3d
00000340: 8abb 8e3d cd98 2e3d deef 96bc 4dd3 373c
00000350: 8e4c 6fba 686f 23bd 3678 06bc c7e5 d53d
00000360: 0199 023c fff8 aa3d 05c2 21bd 13e8 963d
00000370: cb76 5b3c d948 13bc 8b85 48bd 99a4 acbc
00000380: 1e82 0d3c 32e0 c23c 8bbe acbb 7fe0 8ebb
00000390: 90d1 423d a728 ddbd 4fa1 09be d45b 6cbd
000003a0: 9707 a13b c757 8abc 626d 613d 206e 443c
000003b0: ed10 3abd b14b 29bd ba00 25be 8924 efbc
000003c0: 3ee1 39be 4297 9e3d 11e4 1e3d f4a9 7a3b
000003d0: ef3d d6bd b58a 86bc 6d80 a33d c177 893d
000003e0: d6ac 6bbb d99c a03d 44f6 a2bd 6b01 b4bd
000003f0: 1a50 0dbd 5ce4 b1bd 191e d0bc aa75 353d

fc1.bias f4 [64]
-0.097485505 -0.06088374 0.115118094 -0.017613167 -0.006888674 -0.014499807 -0.00049018883 -0.07470196
0.035901327 -0.022534946 -0.049661286 -0.05625163 0.03939293 -0.008235455 -0.07165417 -0.03758838
0.010602696 0.0032113958 -0.026583478 -0.013737401 -0.00030499138 0.02722579 0.016434936 -0.022812463
-0.011756658 -0.03320243 0.019889623 0.026424568 -0.13430744 -0.0388166 0.072311066 -0.086798355
-0.14417353 -0.0811005 0.07804719 -0.056944717 -0.0128898015 -0.025975313 -0.024459338 0.014740805
0.00029322447 -0.077763066 0.026941564 0.018532889 -0.098554 -0.07344122 -0.007859647 -0.005355981
0.05809768 -0.083532766 0.046495825 0.0017931039 -0.05933063 -0.1127334 0.034202583 -0.090354815
-0.081374384 -0.029010301 0.019556267 -0.046189565 -0.07406547 0.06815444 0.05395221 -0.03294646
00000000: 7ba6 c7bd 3b61 79bd 09c3 eb3d 7d49 90bc
00000010: 63ba e1bb 9990 6dbc 0480 00ba 57fd 98bd
00000020: 450d 133d 359b b8bc a269 4bbd 1c68 66bd
00000030: 7b5a 213d 00ee 06bc 6cbf 92bd 46f6 19bd
00000040: eeb6 2d3c 4876 523b 98c5 d9bc d612 61bc
00000050: 40e7 9fb9 9f08 df3c 8fa2 863c 34e1 babc
00000060: ff9e 40bc 45ff 07bd 90ef a23c 5678 d83c
00000070: e487 09be 28fe 1ebd d317 943d 56c3 b1bd
00000080: 3aa2 13be 0518 a6bd 35d7 9f3d dd3e 69bd
00000090: bf2f 53bc 2eca d4bc f35e c8bc 6b83 713c
000000a0: ecbb 9939 3e42 9fbd 8eb4 dc3c 49d2 973c
000000b0: aed6 c9bd 5a68 96bd c0c5 00bc 3a81 afbb
000000c0: d5f7 6d3d 3a13 abbd 6872 3e3d 9506 eb3a
000000d0: ad04 73bd c5e0 e6bd 0218 0c3d f20b b9bd
000000e0: 9da7 a6bd 03a7 edbc 7734 a03c 4531 3dbd
000000f0: a3af 97bd 8e94 8b3d fefc 5c3d def2 06bd

fc2.weight f4 [16, 64]
-0.13529278 -0.015406576 0.1221354 0.0057200394 -0.06381098 0.16315864 -9.739178e-05 0.119738296
0.028766287 -0.07632016 0.022371005 0.089589514 0.08201835 -0.043557167 -0.024321206 0.1311762
-0.037828885 0.16861352 0.06229386 -0.17686321 0.07437817 0.10998749 0.08043576 0.09241035
0.0017409968 0.10528199 0.0709145 -0.11109181 -0.21152207 -0.13415894 0.06333868 -0.1767733
0.16182256 0.1485615 0.0815818 -0.010803785 -0.10615323 -0.06582477 0.089982316 -0.10603724
0.06474242 0.17340484 0.09722261 -0.14770968 0.1244875 -0.1152974 0.050906472 0.11249349
0.036541097 0.17854542 -0.028358744 -0.046788566 -0.075385645 0.039790154 -0.06696816 -0.0718506
-0.04297904 0.02009861 -0.035565145 -0.023299547 0.11092701 0.10817606 -0.18931268 0.17162311
-0.06583434 0.12480114 0.15731695 0.010057342 0.073530406 -0.15028176 -0.055404797 0.032559562
-0.009100231 0.09165074 0.1075241 0.08874709 -0.17106472 -0.098327346 -0.011899764 -0.093789496
0.07260312 0.07300205 -0.061807357 0.10903005 -0.031187277 -0.018872082 -0.108913325 -0.077284686
-0.072979145 -0.13554707 0.10286854 -0.043210477 -0.0041651796 -0.209869 -0.06668668 0.07278558
0.05345551 -0.007578531 0.17734979 0.038955647 0.12637207 0.02918154 0.13333268 0.10977658
-0.20552441 0.038160957 -0.012931939 -0.00360608 0.08858339 -0.016195854 0.078058146 -0.10520823
0.11845522 -0.01664191 0.057330456 0.06825882 0.09187909 -0.061833773 0.027672596 -0.13830553
0.02504567 0.13831593 0.030074814 -0.060959887 0.014078159 0.092047594 0.11303358 -0.07081216
0.04456661 0.010788647 0.10835482 -0.058103178 0.011788714 -0.07446464 -0.15996547 -0.2346207
0.07940298 0.12889978 0.06295236 0.092885755 0.08355085 0.052042034 0.022527775 0.025205769
0.05073686 0.12017786 0.055359237 -0.084978856 0.25050685 -0.12746996 -0.07559037 -0.12464748
-0.07767941 0.03987504 -0.13192013 0.044306096 -0.08910275 -0.009691117 -0.031443737 -0.08933843
-0.0010035483 -0.016279515 -0.0269393 -0.2147636 -0.08485212 -0.09542536 0.005451408 0.15180877
-0.15492536 -0.033171043 0.09505244 -0.03431057 -0.011809639 -0.07172259 -0.08556016 0.18744428
0.09148094 0.050097696 0.018480342 0.004628825 -0.036199186 -0.07084975 -0.041479178 -0.029978368
-0.17235081 -0.16306451 0.03955291 0.13696532 0.05489085 -0.10034514 0.038979203 -0.1369936
0.08111891 0.14617853 -0.01707853 0.103405 0.13929456 -0.05072324 0.07731206 -0.019121885
0.09657817 0.12030777 0.07236764 -0.039934542 -0.0003869622 -0.10558208 -0.07217599 0.018143894
0.09260302 -0.18242304 -0.07506095 0.119984835 0.090322964 -0.068337195 -0.17770503 -0.13637353
-0.10215786 0.048246697 -0.07750827 0.11223614 0.1164198 -0.09222382 0.07082422 -0.009908609
-0.05169483 0.017568568 0.019082274 0.060675856 0.04429136 0.17541209 -0.08272987 0.12718885
-0.017925927 -0.17442553 0.03204591 0.04703222 0.08097099 -0.01873214 0.0437862 -0.13527924
0.109980725 0.09101549 0.21638624 0.12273285 -0.08435122 0.10998559 0.08861349 -0.109786354
0.10450713 -0.084859446 0.05502042 -0.17927104 -0.050963692 0.017207645 -0.051931404 0.06854058
00000000: 318a 0abe dd6b 7cbc 2022 fa3d 2b6f bb3b
00000010: 55af 82bd 0f13 273e d03e ccb8 5a39 f53d
00000020: 47a7 eb3c be4d 9cbd 6643 b73c b57a b73d
00000030: 3df9 a73d 0069 32bd 443d c7bc 0e53 063e
00000040: 76f2 1abd 06a9 2c3e d927 7f3d a11b 35be
00000050: 9553 983d 1f41 e13d 81bb a43d a341 bd3d
00000060: 2932 e43a 159e d73d 9f3b 913d 1a84 e3bd
00000070: 3e99 58be f660 09be b6b7 813d 0f04 35be
00000080: d0b4 253e 8120 183e 5c14 a73d 5c02 31bc
00000090: dd66 d9bd 23cf 86bd a648 b83d 0d2a d9bd
000000a0: ad97 843d 0a91 313e a61c c73d 3541 17be
000000b0: 4df3 fe3d 0b21 ecbd 4e83 503d fd62 e63d
000000c0: 1eac 153d 9cd4 363e 9950 e8bc 5ea5 3fbd
000000d0: ca63 9abd 00fb 223d 9a26 89bd 6826 93bd
000000e0: ca0a 30bd d7a5 a43c c2ac 11bd b1de bebc
000000f0: b32d e33d 698b dd3d 2fdb 41be f8bd 2f3e
00000100: 28d4 86bd bd97 ff3d b217 213e 8dc7 243c
00000110: 1c97 963d 76e3 19be 24f0 62bd 2d5d 053d
00000120: 2319 15bc 62b3 bb3d 9835 dc3d 09c1 b53d
00000130: 972b 2fbe d95f c9bd 3af7 42bc b514 c0bd
00000140: f2b0 943d 1982 953d b629 7dbd 264b df3d
00000150: 767c ffbc a099 9abc f30d dfbd 6f47 9ebd
00000160: 1776 95bd dacc 0abe beac d23d 78fd 30bd
00000170: 0f7c 88bb e6e7 56be 0793 88bd 9b10 953d
00000180: 2af4 5a3d 5355 f8bb 2f9b 353e f58f 1f3d
00000190: ae67 013e 200e ef3c 5d88 083e 8bd2 e03d
000001a0: fe74 52be aa4e 1c3d 7ce0 53bc fc53 6cbb
000001b0: 356b b53d 2bad 84bc f3dc 9f3d 6a77 d7bd
000001c0: a698 f23d 9d54 88bc 57d3 6a3d 48cb 8b3d
000001d0: 1b2b bc3d 6945 7dbd a4b1 e23c f79f 0dbe
000001e0: 942c cd3c b1a2 0d3e 755f f63c 13b1 79bd
000001f0: 14a8 663c 7383 bc3d 267e e73d f705 91bd
00000200: 7a8b 363d dec2 303c 22e9 dd3d 99fd 6dbd
00000210: 7325 413c eb80 98bd fdcd 23be 6940 70be
00000220: 089e a23d 4efe 033e 2bed 803d e33a be3d
00000230: b51c ab3d 072a 553d 2b8c b83c 547c ce3c
00000240: 74d1 4f3d cf1f f63d 5ec0 623d 6509 aebd
00000250: 6f42 803e 7c87 02be 20cf 9abd 2e47 ffbd
00000260: 6216 9fbd 0354 233d 1216 07be 4f7a 353d
00000270: 817b b6bd 7ec7 1ebc 26cb 00bd 11f7 b6bd
00000280: 7e89 83ba 9e5c 85bc cfaf dcbc fdea 5bbe
00000290: f3c6 adbd 5f6e c3bd baa1 b23b c273 1b3e
000002a0: c1a4 1ebe 5cde 07bd dbaa c23d 3e89 0cbd
000002b0: 377d 41bc 4be3 92bd 2a3a afbd 65f1 3f3e
000002c0: 5c5a bb3d 3e33 4d3d 1664 973c 66ad 973b
000002d0: 9945 14bd ac19 91bd 12e6 29bd 3295 f5bc
000002e0: bb7c 30be 62fa 26be 3b02 223d a340 0c3e
000002f0: 3ad5 603d c181 cdbd a8a8 1f3d 0d48 0cbe
00000300: ac21 a63d d3af 153e 46e8 8bbc 00c6 d33d
00000310: 3ca3 0e3e 2cc3 4fbd c955 9e3d 80a5 9cbc
00000320: c7ca c53d ec63 f63d 7c35 943d 6792 23bd
00000330: 30e1 cab9 6b3b d8bd 01d1 93bd 81a2 943c
00000340: a7a6 bd3d 1bcd 3abe 8eb9 99bd 9cba f53d
00000350: 3ffb b83d 5ff4 8bbd 4ff8 35be 81a5 0bbe
00000360: 2438 d1bd 549e 453d a8bc 9ebd 10dc e53d
00000370: 816d ee3d d8df bcbd 4a0c 913d b857 22bc
00000380: f5bd 53bd f5eb 8f3c 6e52 9c3c 3f87 783d
00000390: db6a 353d 3a9f 333e 476e a9bd cb3d 023e
000003a0: 65d9 92bc 9b9c 32be 9242 033d dba4 403d
000003b0: 1ed4 a53d 2574 99bc 2959 333d a486 0abe
000003c0: 933d e13d 5466 ba3d 5b94 5d3e 5c5b fb3d
000003d0: 55c0 acbd 2040 e13d fd7a b53d abd7 e0bd
000003e0: d607 d63d caca adbd 185d 613d d492 37be
000003f0: 4ebf 50bd 0cf7 8c3c 06b6 54bd 015f 8c3d

fc2.bias f4 [16]
0.03414289 -0.0659028 -0.11254453 0.08620021 0.13123606 0.09345109 0.080822475 -0.14017676
0.13642865 -0.18304636 0.04530503 0.15585649 -0.046735443 0.10118059 -0.027809732 0.119697444
00000000: 6ad9 0b3d 0cf8 86bd bf7d e6bd bc89 b03d
00000010: bf62 063e 4963 bf3d 4186 a53d 7f8a 0fbe
00000020: f4b3 0b3e 8170 3bbe c491 393d d898 1f3e
00000030: aa6d 3fbd c537 cf3d 3cd1 e3bc ef23 f53d

fc3.weight f4 [1, 16]
0.26666245 -0.16477317 0.2725731 -0.10394638 0.28420028 -0.16517921 0.12426839 0.21512267
0.09801762 -0.29195428 0.050661363 -0.2538792 0.28554946 -0.059392374 -0.0850882 -0.2850462
00000000: fb87 883e 4cba 28be b48e 8b3e d7e1 d4bd
00000010: b382 913e bd24 29be 6d80 fe3d 1e49 5c3e
00000020: 76bd c83d 087b 95be 4a82 4f3d 74fc 81be
00000030: 8a33 923e 6b45 73bd b942 aebd 93f1 91be
